…
"displayName":"Alena Malitska","userId":"11194582399968988228"}},"outputId":"ab8ffd0e-d923-4e39-92f1-fa9dbde1e12b"},"execution_count":null,"outputs":[{"output_type":"stream","name":"stdout","text":["Model: \"model\"\n","_________________________________________________________________\n"," Layer (type)                Output Shape              Param #   \n","=================================================================\n"," input_1 (InputLayer)        [(None, 300, 300, 3)]     0         \n","                                                                 \n"," cast_to_float32 (CastToFloa  (None, 300, 300, 3)      0         \n"," t32)                                                            \n","                                                                 \n"," normalization (Normalizatio  (None, 300, 300, 3)      7         \n"," n)                                                              \n","                                                                 \n"," conv2d (Conv2D)             (None, 298, 298, 32)      896       \n","                                                                 \n"," conv2d_1 (Conv2D)           (None, 296, 296, 64)      18496     \n","                                                                 \n"," max_pooling2d (MaxPooling2D  (None, 148, 148, 64)     0         \n"," )                                                               \n","                                                                 \n"," dropout (Dropout)           (None, 148, 148, 64)      0         \n","                                                                 \n"," flatten (Flatten)           (None, 1401856)           0         \n","                                                                 \n"," dropout_1 (Dropout)         (None, 1401856)           0         \n","                                                                 \n"," dense (Dense)               (None, 3)                 4205571   \n","                                                                 \n"," classification_head_1 (Soft  (None, 3)                0         \n"," max)                                                            \n","                                                                 \n","=================================================================\n","Total params: 4,224,970\n","Trainable params: 4,224,963\n","Non-trainable params: 7\n","_________________________________________________________________\n"]}]},{"cell_type":"c
…
